…
2026-03-10 14:03:43,431 (initialize:43) INFO: Initialize decoder.decoder.layers.17.layer.ff.2.bias to zeros
2026-03-10 14:03:43,431 (initialize:43) INFO: Initialize decoder.decoder.layers.17.norm.norm.bias to zeros
2026-03-10 14:03:43,431 (initialize:43) INFO: Initialize decoder.decoder.norm.norm.bias to zeros
2026-03-10 14:03:43,431 (initialize:43) INFO: Initialize decoder.output.bias to zeros
2026-03-10 14:03:43,730 (asr_inference:386) INFO: BatchBeamSearchOnlineSim implementation is selected.
2026-03-10 14:03:43,735 (asr_inference:402) INFO: Beam_search: BatchBeamSearchOnlineSim(
  (nn_dict): ModuleDict(
    (decoder): S4Decoder(
      (embed): Embedding(300, 320)
      (dropout_emb): Dropout(p=0.1, inplace=False)
      (decoder): SequenceModel(
        (drop): Identity()
        (layers): ModuleList(
          (0): SequenceResidualBlock(
            (layer): S4(
              (kernel): SSKernel(
                (kernel): SSKernelNPLR()
              )
              (activation): GELU(approximate='none')
              (dropout): Dropout(p=0.1, inplace=False)
              (output_linear): Sequential(
                (0): Linear(in_features=320, out_features=640, bias=True)
                (1): GLU(dim=-1)
              )
            )
            (residual): Residual()
            (norm): Normalization(
              (norm): LayerNorm((320,), eps=1e-05, elementwise_affine=True)
            )
            (drop): Dropout(p=0.1, inplace=False)
            (drop_path): Identity()
          )
          (1): SequenceResidualBlock(
            (layer): MultiHeadedAttention(
              (linear_q): Linear(in_features=320, out_features=320, bias=True)
              (linear_k): Linear(in_features=320, out_features=320, bias=True)
              (linear_v): Linear(in_features=320, out_features=320, bias=True)
              (linear_out): Linear(in_features=320, out_features=320, bias=True)
              (dropout): Dropout(p=0.1, inplace=False)
            )
            (residual): Residual()
            (norm): Normalization(
              (norm): LayerNorm((320,), eps=1e-05, elementwise_affine=True)
            )
            (drop): Dropout(p=0.1, inplace=False)
            (drop_path): Identity()
          )
          (2): SequenceResidualBlock(
            (layer): FF(
              (ff): Sequential(
                (0): Sequential(
                  (0): Linear(in_features=320, out_features=1280, bias=True)
                  (1): GELU(approximate='none')
                )
                (1): Dropout(p=0.1, inplace=False)
                (2): Linear(in_features=1280, out_features=320, bias=True)
              )
            )
            (residual): Residual()
            (norm): Normalization(
              (norm): LayerNorm((320,), eps=1e-05, elementwise_affine=True)
            )
            (drop): Dropout(p=0.1, inplace=False)
            (drop_path): Identity()
          )
          (3): SequenceResidualBlock(
            (layer): S4(
              (kernel): SSKernel(
                (kernel): SSKernelNPLR()
              )
              (activation): GELU(approximate='none')
              (dropout): Dropout(p=0.1, inplace=False)
              (output_linear): Sequential(
                (0): Linear(in_features=320, out_features=640, bias=True)
                (1): GLU(dim=-1)
              )
            )
            (residual): Residual()
            (norm): Normalization(
              (norm): LayerNorm((320,), eps=1e-05, elementwise_affine=True)
            )
            (drop): Dropout(p=0.1, inplace=False)
            (drop_path): Identity()
          )
          (4): SequenceResidualBlock(
            (layer): MultiHeadedAttention(
              (linear_q): Linear(in_features=320, out_features=320, bias=True)
              (linear_k): Linear(in_features=320, out_features=320, bias=True)
              (linear_v): Linear(in_features=320, out_features=320, bias=True)
              (linear_out): Linear(in_features=320, out_features=320, bias=True)
              (dropout): Dropout(p=0.1, inplace=False)
            )
            (residual): Residual()
            (norm): Normalization(
              (norm): LayerNorm((320,), eps=1e-05, elementwise_affine=True)
            )
            (drop): Dropout(p=0.1, inplace=False)
            (drop_path): Identity()
          )
          (5): SequenceResidualBlock(
            (layer): FF(
              (ff): Sequential(
                (0): Sequential(
                  (0): Linear(in_features=320, out_features=1280, bias=True)
                  (1): GELU(approximate='none')
                )
                (1): Dropout(p=0.1, inplace=False)
                (2): Linear(in_features=1280, out_features=320, bias=True)
              )
            )
            (residual): Residual()
            (norm): Normalization(
              (norm): LayerNorm((320,), eps=1e-05, elementwise_affine=True)
            )
            (drop): Dropout(p=0.1, inplace=False)
            (drop_path): Identity()
          )
          (6): SequenceResidualBlock(
            (layer): S4(
              (kernel): SSKernel(
                (kernel): SSKernelNPLR()
              )
              (activation): GELU(approximate='none')
              (dropout): Dropout(p=0.1, inplace=False)
              (output_linear): Sequential(
                (0): Linear(in_features=320, out_features=640, bias=True)
                (1): GLU(dim=-1)
              )
            )
            (residual): Residual()
            (norm): Normalization(
              (norm): LayerNorm((320,), eps=1e-05, elementwise_affine=True)
            )
            (drop): Dropout(p=0.1, inplace=False)
            (drop_path): Identity()
          )
          (7): SequenceResidualBlock(
            (layer): MultiHeadedAttention(
              (linear_q): Linear(in_features=320, out_features=320, bias=True)
              (linear_k): Linear(in_features=320, out_features=320, bias=True)
              (linear_v): Linear(in_features=320, out_features=320, bias=True)
              (linear_out): Linear(in_features=320, out_features=320, bias=True)
              (dropout): Dropout(p=0.1, inplace=False)
            )
            (residual): Residual()
            (norm): Normalization(
              (norm): LayerNorm((320,), eps=1e-05, elementwise_affine=True)
            )
            (drop): Dropout(p=0.1, inplace=False)
            (drop_path): Identity()
          )
          (8): SequenceResidualBlock(
            (layer): FF(
              (ff): Sequential(
                (0): Sequential(
                  (0): Linear(in_features=320, out_features=1280, bias=True)
                  (1): GELU(approximate='none')
                )
                (1): Dropout(p=0.1, inplace=False)
                (2): Linear(in_features=1280, out_features=320, bias=True)
              )
            )
            (residual): Residual()
            (norm): Normalization(
              (norm): LayerNorm((320,), eps=1e-05, elementwise_affine=True)
            )
            (drop): Dropout(p=0.1, inplace=False)
            (drop_path): Identity()
          )
          (9): SequenceResidualBlock(
            (layer): S4(
              (kernel): SSKernel(
                (kernel): SSKernelNPLR()
              )
              (activation): GELU(approximate='none')
              (dropout): Dropout(p=0.1, inplace=False)
              (output_linear): Sequential(
                (0): Linear(in_features=320, out_features=640, bias=True)
                (1): GLU(dim=-1)
              )
            )
            (residual): Residual()
            (norm): Normalization(
              (norm): LayerNorm((320,), eps=1e-05, elementwise_affine=True)
            )
            (drop): Dropout(p=0.1, inplace=False)
            (drop_path): Identity()
          )
          (10): SequenceResidualBlock(
            (layer): MultiHeadedAttention(
              (linear_q): Linear(in_features=320, out_features=320, bias=True)
              (linear_k): Linear(in_features=320, out_features=320, bias=True)
              (linear_v): Linear(in_features=320, out_features=320, bias=True)
              (linear_out): Linear(in_features=320, out_features=320, bias=True)
              (dropout): Dropout(p=0.1, inplace=False)
            )
            (residual): Residual()
            (norm): Normalization(
              (norm): LayerNorm((320,), eps=1e-05, elementwise_affine=True)
            )
            (drop): Dropout(p=0.1, inplace=False)
            (drop_path): Identity()
          )
          (11): SequenceResidualBlock(
            (layer): FF(
              (ff): Sequential(
                (0): Sequential(
                  (0): Linear(in_features=320, out_features=1280, bias=True)
                  (1): GELU(approximate='none')
                )
                (1): Dropout(p=0.1, inplace=False)
                (2): Linear(in_features=1280, out_features=320, bias=True)
              )
            )
            (residual): Residual()
            (norm): Normalization(
              (norm): LayerNorm((320,), eps=1e-05, elementwise_affine=True)
            )
            (drop): Dropout(p=0.1, inplace=False)
            (drop_path): Identity()
          )
          (12): SequenceResidualBlock(
            (layer): S4(
              (kernel): SSKernel(
                (kernel): SSKernelNPLR()
              )
              (activation): GELU(approximate='none')
              (dropout): Dropout(p=0.1, inplace=False)
              (output_linear): Sequential(
                (0): Linear(in_features=320, out_features=640, bias=True)
                (1): GLU(dim=-1)
              )
            )
            (residual): Residual()
            (norm): Normalization(
              (norm): LayerNorm((320,), eps=1e-05, elementwise_affine=True)
            )
            (drop): Dropout(p=0.1, inplace=False)
            (drop_path): Identity()
          )
          (13): SequenceResidualBlock(
            (layer): MultiHeadedAttention(
              (linear_q): Linear(in_features=320, out_features=320, bias=True)
              (linear_k): Linear(in_features=320, out_features=320, bias=True)
              (linear_v): Linear(in_features=320, out_features=320, bias=True)
              (linear_out): Linear(in_features=320, out_features=320, bias=True)
              (dropout): Dropout(p=0.1, inplace=False)
            )
            (residual): Residual()
            (norm): Normalization(
              (norm): LayerNorm((320,), eps=1e-05, elementwise_affine=True)
            )
            (drop): Dropout(p=0.1, inplace=False)
            (drop_path): Identity()
          )
          (14): SequenceResidualBlock(
            (layer): FF(
              (ff): Sequential(
                (0): Sequential(
                  (0): Linear(in_features=320, out_features=1280, bias=True)
                  (1): GELU(approximate='none')
                )
                (1): Dropout(p=0.1, inplace=False)
                (2): Linear(in_features=1280, out_features=320, bias=True)
              )
            )
            (residual): Residual()
            (norm): Normalization(
              (norm): LayerNorm((320,), eps=1e-05, elementwise_affine=True)
            )
            (drop): Dropout(p=0.1, inplace=False)
            (drop_path): Identity()
          )
          (15): SequenceResidualBlock(
            (layer): S4(
              (kernel): SSKernel(
                (kernel): SSKernelNPLR()
              )
              (activation): GELU(approximate='none')
              (dropout): Dropout(p=0.1, inplace=False)
              (output_linear): Sequential(
                (0): Linear(in_features=320, out_features=640, bias=True)
                (1): GLU(dim=-1)
              )
            )
            (residual): Residual()
            (norm): Normalization(
              (norm): LayerNorm((320,), eps=1e-05, elementwise_affine=True)
            )
            (drop): Dropout(p=0.1, inplace=False)
            (drop_path): Identity()
          )
          (16): SequenceResidualBlock(
            (layer): MultiHeadedAttention(
              (linear_q): Linear(in_features=320, out_features=320, bias=True)
              (linear_k): Linear(in_features=320, out_features=320, bias=True)
              (linear_v): Linear(in_features=320, out_features=320, bias=True)
              (linear_out): Linear(in_features=320, out_features=320, bias=True)
              (dropout): Dropout(p=0.1, inplace=False)
            )
            (residual): Residual()
            (norm): Normalization(
              (norm): LayerNorm((320,), eps=1e-05, elementwise_affine=True)
            )
            (drop): Dropout(p=0.1, inplace=False)
            (drop_path): Identity()
          )
          (17): SequenceResidualBlock(
            (layer): FF(
              (ff): Sequential(
                (0): Sequential(
                  (0): Linear(in_features=320, out_features=1280, bias=True)
                  (1): GELU(approximate='none')
                )
                (1): Dropout(p=0.1, inplace=False)
                (2): Linear(in_features=1280, out_features=320, bias=True)
              )
            )
            (residual): Residual()
            (norm): Normalization(
              (norm): LayerNorm((320,), eps=1e-05, elementwise_affine=True)
            )
            (drop): Dropout(p=0.1, inplace=False)
            (drop_path): Identity()
          )
        )
        (norm): Normalization(
          (norm): LayerNorm((320,), eps=1e-05, elementwise_affine=True)
        )
      )
      (output): Linear(in_features=320, out_features=300, bias=True)
    )
  )
)
2026-03-10 14:03:43,735 (asr_inference:403) INFO: Decoding device=cpu, dtype=float32
2026-03-10 14:03:43,735 (asr_inference:481) INFO: Text tokenizer: SentencepiecesTokenizer(model="data/nl_token_list/bpe_unigram300/bpe.model")
2026-03-10 14:03:43,736 (asr:507) INFO: Optional Data Names: ('text_spk2', 'text_spk3', 'text_spk4', 'prompt')
2026-03-10 14:03:43,770 (asr_inference:528) INFO: speech length: 197968
…
