…
[gunmetal] 2026-03-05 17:34:24,653 (abs_task:1455) INFO: pytorch.version=2.7.1+cu128, cuda.available=True, cudnn.version=90701, cudnn.benchmark=False, cudnn.deterministic=True
[gunmetal] 2026-03-05 17:34:24,656 (abs_task:1456) INFO: Model structure:
ESPnetASRModel(
  (frontend): DefaultFrontend(
    (stft): Stft(n_fft=512, win_length=512, hop_length=160, center=True, normalized=False, onesided=True)
    (frontend): Frontend()
    (logmel): LogMel(sr=16000, n_fft=512, n_mels=80, fmin=0, fmax=8000.0, htk=False)
  )
  (normalize): GlobalMVN(stats_file=exp/asr_stats_raw_nl_bpe300/train/feats_stats.npz, norm_means=True, norm_vars=True)
  (encoder): RNNEncoder(
    (enc): ModuleList(
      (0): RNNP(
        (rnn0): LSTM(80, 256, batch_first=True)
        (bt0): Linear(in_features=256, out_features=320, bias=True)
      )
    )
  )
  (decoder): S4Decoder(
    (embed): Embedding(300, 320)
    (dropout_emb): Dropout(p=0.1, inplace=False)
    (decoder): SequenceModel(
      (drop): Identity()
      (layers): ModuleList(
        (0): SequenceResidualBlock(
          (layer): S4(
            (kernel): SSKernel(
              (kernel): SSKernelNPLR()
            )
            (activation): GELU(approximate='none')
            (dropout): Dropout(p=0.1, inplace=False)
            (output_linear): Sequential(
              (0): Linear(in_features=320, out_features=640, bias=True)
              (1): GLU(dim=-1)
            )
          )
          (residual): Residual()
          (norm): Normalization(
            (norm): LayerNorm((320,), eps=1e-05, elementwise_affine=True)
          )
          (drop): Dropout(p=0.1, inplace=False)
          (drop_path): Identity()
        )
        (1): SequenceResidualBlock(
          (layer): MultiHeadedAttention(
            (linear_q): Linear(in_features=320, out_features=320, bias=True)
            (linear_k): Linear(in_features=320, out_features=320, bias=True)
            (linear_v): Linear(in_features=320, out_features=320, bias=True)
            (linear_out): Linear(in_features=320, out_features=320, bias=True)
            (dropout): Dropout(p=0.1, inplace=False)
          )
          (residual): Residual()
          (norm): Normalization(
            (norm): LayerNorm((320,), eps=1e-05, elementwise_affine=True)
          )
          (drop): Dropout(p=0.1, inplace=False)
          (drop_path): Identity()
        )
        (2): SequenceResidualBlock(
          (layer): FF(
            (ff): Sequential(
              (0): Sequential(
                (0): Linear(in_features=320, out_features=1280, bias=True)
                (1): GELU(approximate='none')
              )
              (1): Dropout(p=0.1, inplace=False)
              (2): Linear(in_features=1280, out_features=320, bias=True)
            )
          )
          (residual): Residual()
          (norm): Normalization(
            (norm): LayerNorm((320,), eps=1e-05, elementwise_affine=True)
          )
          (drop): Dropout(p=0.1, inplace=False)
          (drop_path): Identity()
        )
        (3): SequenceResidualBlock(
          (layer): S4(
            (kernel): SSKernel(
              (kernel): SSKernelNPLR()
            )
            (activation): GELU(approximate='none')
            (dropout): Dropout(p=0.1, inplace=False)
            (output_linear): Sequential(
              (0): Linear(in_features=320, out_features=640, bias=True)
              (1): GLU(dim=-1)
            )
          )
          (residual): Residual()
          (norm): Normalization(
            (norm): LayerNorm((320,), eps=1e-05, elementwise_affine=True)
          )
          (drop): Dropout(p=0.1, inplace=False)
          (drop_path): Identity()
        )
        (4): SequenceResidualBlock(
          (layer): MultiHeadedAttention(
            (linear_q): Linear(in_features=320, out_features=320, bias=True)
            (linear_k): Linear(in_features=320, out_features=320, bias=True)
            (linear_v): Linear(in_features=320, out_features=320, bias=True)
            (linear_out): Linear(in_features=320, out_features=320, bias=True)
            (dropout): Dropout(p=0.1, inplace=False)
          )
          (residual): Residual()
          (norm): Normalization(
            (norm): LayerNorm((320,), eps=1e-05, elementwise_affine=True)
          )
          (drop): Dropout(p=0.1, inplace=False)
          (drop_path): Identity()
        )
        (5): SequenceResidualBlock(
          (layer): FF(
            (ff): Sequential(
              (0): Sequential(
                (0): Linear(in_features=320, out_features=1280, bias=True)
                (1): GELU(approximate='none')
              )
              (1): Dropout(p=0.1, inplace=False)
              (2): Linear(in_features=1280, out_features=320, bias=True)
            )
          )
          (residual): Residual()
          (norm): Normalization(
            (norm): LayerNorm((320,), eps=1e-05, elementwise_affine=True)
          )
          (drop): Dropout(p=0.1, inplace=False)
          (drop_path): Identity()
        )
        (6): SequenceResidualBlock(
          (layer): S4(
            (kernel): SSKernel(
              (kernel): SSKernelNPLR()
            )
            (activation): GELU(approximate='none')
            (dropout): Dropout(p=0.1, inplace=False)
            (output_linear): Sequential(
              (0): Linear(in_features=320, out_features=640, bias=True)
              (1): GLU(dim=-1)
            )
          )
          (residual): Residual()
          (norm): Normalization(
            (norm): LayerNorm((320,), eps=1e-05, elementwise_affine=True)
          )
          (drop): Dropout(p=0.1, inplace=False)
          (drop_path): Identity()
        )
        (7): SequenceResidualBlock(
          (layer): MultiHeadedAttention(
            (linear_q): Linear(in_features=320, out_features=320, bias=True)
            (linear_k): Linear(in_features=320, out_features=320, bias=True)
            (linear_v): Linear(in_features=320, out_features=320, bias=True)
            (linear_out): Linear(in_features=320, out_features=320, bias=True)
            (dropout): Dropout(p=0.1, inplace=False)
          )
          (residual): Residual()
          (norm): Normalization(
            (norm): LayerNorm((320,), eps=1e-05, elementwise_affine=True)
          )
          (drop): Dropout(p=0.1, inplace=False)
          (drop_path): Identity()
        )
        (8): SequenceResidualBlock(
          (layer): FF(
            (ff): Sequential(
              (0): Sequential(
                (0): Linear(in_features=320, out_features=1280, bias=True)
                (1): GELU(approximate='none')
              )
              (1): Dropout(p=0.1, inplace=False)
              (2): Linear(in_features=1280, out_features=320, bias=True)
            )
          )
          (residual): Residual()
          (norm): Normalization(
            (norm): LayerNorm((320,), eps=1e-05, elementwise_affine=True)
          )
          (drop): Dropout(p=0.1, inplace=False)
          (drop_path): Identity()
        )
        (9): SequenceResidualBlock(
          (layer): S4(
            (kernel): SSKernel(
              (kernel): SSKernelNPLR()
            )
            (activation): GELU(approximate='none')
            (dropout): Dropout(p=0.1, inplace=False)
            (output_linear): Sequential(
              (0): Linear(in_features=320, out_features=640, bias=True)
              (1): GLU(dim=-1)
            )
          )
          (residual): Residual()
          (norm): Normalization(
            (norm): LayerNorm((320,), eps=1e-05, elementwise_affine=True)
          )
          (drop): Dropout(p=0.1, inplace=False)
          (drop_path): Identity()
        )
        (10): SequenceResidualBlock(
          (layer): MultiHeadedAttention(
            (linear_q): Linear(in_features=320, out_features=320, bias=True)
            (linear_k): Linear(in_features=320, out_features=320, bias=True)
            (linear_v): Linear(in_features=320, out_features=320, bias=True)
            (linear_out): Linear(in_features=320, out_features=320, bias=True)
            (dropout): Dropout(p=0.1, inplace=False)
          )
          (residual): Residual()
          (norm): Normalization(
            (norm): LayerNorm((320,), eps=1e-05, elementwise_affine=True)
          )
          (drop): Dropout(p=0.1, inplace=False)
          (drop_path): Identity()
        )
        (11): SequenceResidualBlock(
          (layer): FF(
            (ff): Sequential(
              (0): Sequential(
                (0): Linear(in_features=320, out_features=1280, bias=True)
                (1): GELU(approximate='none')
              )
              (1): Dropout(p=0.1, inplace=False)
              (2): Linear(in_features=1280, out_features=320, bias=True)
            )
          )
          (residual): Residual()
          (norm): Normalization(
            (norm): LayerNorm((320,), eps=1e-05, elementwise_affine=True)
          )
          (drop): Dropout(p=0.1, inplace=False)
          (drop_path): Identity()
        )
        (12): SequenceResidualBlock(
          (layer): S4(
            (kernel): SSKernel(
              (kernel): SSKernelNPLR()
            )
            (activation): GELU(approximate='none')
            (dropout): Dropout(p=0.1, inplace=False)
            (output_linear): Sequential(
              (0): Linear(in_features=320, out_features=640, bias=True)
              (1): GLU(dim=-1)
            )
          )
          (residual): Residual()
          (norm): Normalization(
            (norm): LayerNorm((320,), eps=1e-05, elementwise_affine=True)
          )
          (drop): Dropout(p=0.1, inplace=False)
          (drop_path): Identity()
        )
        (13): SequenceResidualBlock(
          (layer): MultiHeadedAttention(
            (linear_q): Linear(in_features=320, out_features=320, bias=True)
            (linear_k): Linear(in_features=320, out_features=320, bias=True)
            (linear_v): Linear(in_features=320, out_features=320, bias=True)
            (linear_out): Linear(in_features=320, out_features=320, bias=True)
            (dropout): Dropout(p=0.1, inplace=False)
          )
          (residual): Residual()
          (norm): Normalization(
            (norm): LayerNorm((320,), eps=1e-05, elementwise_affine=True)
          )
          (drop): Dropout(p=0.1, inplace=False)
          (drop_path): Identity()
        )
        (14): SequenceResidualBlock(
          (layer): FF(
            (ff): Sequential(
              (0): Sequential(
                (0): Linear(in_features=320, out_features=1280, bias=True)
                (1): GELU(approximate='none')
              )
              (1): Dropout(p=0.1, inplace=False)
              (2): Linear(in_features=1280, out_features=320, bias=True)
            )
          )
          (residual): Residual()
          (norm): Normalization(
            (norm): LayerNorm((320,), eps=1e-05, elementwise_affine=True)
          )
          (drop): Dropout(p=0.1, inplace=False)
          (drop_path): Identity()
        )
        (15): SequenceResidualBlock(
          (layer): S4(
            (kernel): SSKernel(
              (kernel): SSKernelNPLR()
            )
            (activation): GELU(approximate='none')
            (dropout): Dropout(p=0.1, inplace=False)
            (output_linear): Sequential(
              (0): Linear(in_features=320, out_features=640, bias=True)
              (1): GLU(dim=-1)
            )
          )
          (residual): Residual()
          (norm): Normalization(
            (norm): LayerNorm((320,), eps=1e-05, elementwise_affine=True)
          )
          (drop): Dropout(p=0.1, inplace=False)
          (drop_path): Identity()
        )
        (16): SequenceResidualBlock(
          (layer): MultiHeadedAttention(
            (linear_q): Linear(in_features=320, out_features=320, bias=True)
            (linear_k): Linear(in_features=320, out_features=320, bias=True)
            (linear_v): Linear(in_features=320, out_features=320, bias=True)
            (linear_out): Linear(in_features=320, out_features=320, bias=True)
            (dropout): Dropout(p=0.1, inplace=False)
          )
          (residual): Residual()
          (norm): Normalization(
            (norm): LayerNorm((320,), eps=1e-05, elementwise_affine=True)
          )
          (drop): Dropout(p=0.1, inplace=False)
          (drop_path): Identity()
        )
        (17): SequenceResidualBlock(
          (layer): FF(
            (ff): Sequential(
              (0): Sequential(
                (0): Linear(in_features=320, out_features=1280, bias=True)
                (1): GELU(approximate='none')
              )
              (1): Dropout(p=0.1, inplace=False)
              (2): Linear(in_features=1280, out_features=320, bias=True)
            )
          )
          (residual): Residual()
          (norm): Normalization(
            (norm): LayerNorm((320,), eps=1e-05, elementwise_affine=True)
          )
          (drop): Dropout(p=0.1, inplace=False)
          (drop_path): Identity()
        )
      )
      (norm): Normalization(
        (norm): LayerNorm((320,), eps=1e-05, elementwise_affine=True)
      )
    )
    (output): Linear(in_features=320, out_features=300, bias=True)
  )
  (criterion_att): LabelSmoothingLoss(
    (criterion): KLDivLoss()
  )
)

Model summary:
    Class Name: ESPnetASRModel
    Total Number of model parameters: 9.38 M
    Number of trainable parameters: 9.38 M (100.0%)
    Size: 37.53 MB
    Type: torch.float32
[gunmetal] 2026-03-05 17:34:24,656 (abs_task:1459) INFO: Optimizer:
Adam (
Parameter Group 0
…
