…
[jasmine] 2026-04-02 18:10:31,839 (abs_task:1455) INFO: pytorch.version=2.7.1+cu128, cuda.available=True, cudnn.version=90701, cudnn.benchmark=False, cudnn.deterministic=True
[jasmine] 2026-04-02 18:10:31,840 (abs_task:1456) INFO: Model structure:
ESPnetASRModel(
  (frontend): DefaultFrontend(
    (stft): Stft(n_fft=512, win_length=512, hop_length=160, center=True, normalized=False, onesided=True)
    (frontend): Frontend()
    (logmel): LogMel(sr=16000, n_fft=512, n_mels=80, fmin=0, fmax=8000.0, htk=False)
  )
  (normalize): UtteranceMVN(norm_means=True, norm_vars=False)
  (encoder): RNNEncoder(
    (enc): ModuleList(
      (0): RNNP(
        (rnn0): LSTM(80, 256, batch_first=True)
        (bt0): Linear(in_features=256, out_features=320, bias=True)
        (rnn1): LSTM(320, 256, batch_first=True)
        (bt1): Linear(in_features=256, out_features=320, bias=True)
        (rnn2): LSTM(320, 256, batch_first=True)
        (bt2): Linear(in_features=256, out_features=320, bias=True)
      )
    )
  )
  (decoder): S4Decoder(
    (embed): Embedding(300, 320)
    (dropout_emb): Dropout(p=0.1, inplace=False)
    (decoder): SequenceModel(
      (drop): Identity()
      (layers): ModuleList(
        (0): SequenceResidualBlock(
          (layer): S4(
            (kernel): SSKernel(
              (kernel): SSKernelNPLR()
            )
            (activation): GELU(approximate='none')
            (dropout): Dropout(p=0.1, inplace=False)
            (output_linear): Sequential(
              (0): Linear(in_features=320, out_features=640, bias=True)
              (1): GLU(dim=-1)
            )
          )
          (residual): Residual()
          (norm): Normalization(
            (norm): LayerNorm((320,), eps=1e-05, elementwise_affine=True)
          )
          (drop): Dropout(p=0.1, inplace=False)
          (drop_path): Identity()
        )
        (1): SequenceResidualBlock(
          (layer): FF(
            (ff): Sequential(
              (0): Sequential(
                (0): Linear(in_features=320, out_features=1280, bias=True)
                (1): GELU(approximate='none')
              )
              (1): Dropout(p=0.1, inplace=False)
              (2): Linear(in_features=1280, out_features=320, bias=True)
            )
          )
          (residual): Residual()
          (norm): Normalization(
            (norm): LayerNorm((320,), eps=1e-05, elementwise_affine=True)
          )
          (drop): Dropout(p=0.1, inplace=False)
          (drop_path): Identity()
        )
        (2): SequenceResidualBlock(
          (layer): S4(
            (kernel): SSKernel(
              (kernel): SSKernelNPLR()
            )
            (activation): GELU(approximate='none')
            (dropout): Dropout(p=0.1, inplace=False)
            (output_linear): Sequential(
              (0): Linear(in_features=320, out_features=640, bias=True)
              (1): GLU(dim=-1)
            )
          )
          (residual): Residual()
          (norm): Normalization(
            (norm): LayerNorm((320,), eps=1e-05, elementwise_affine=True)
          )
          (drop): Dropout(p=0.1, inplace=False)
          (drop_path): Identity()
        )
        (3): SequenceResidualBlock(
          (layer): FF(
            (ff): Sequential(
              (0): Sequential(
                (0): Linear(in_features=320, out_features=1280, bias=True)
                (1): GELU(approximate='none')
              )
              (1): Dropout(p=0.1, inplace=False)
              (2): Linear(in_features=1280, out_features=320, bias=True)
            )
          )
          (residual): Residual()
          (norm): Normalization(
            (norm): LayerNorm((320,), eps=1e-05, elementwise_affine=True)
          )
          (drop): Dropout(p=0.1, inplace=False)
          (drop_path): Identity()
        )
      )
      (norm): Normalization(
        (norm): LayerNorm((320,), eps=1e-05, elementwise_affine=True)
      )
    )
    (output): Linear(in_features=320, out_features=300, bias=True)
  )
  (criterion_att): LabelSmoothingLoss(
    (criterion): KLDivLoss()
  )
)

Model summary:
    Class Name: ESPnetASRModel
    Total Number of model parameters: 4.07 M
    Number of trainable parameters: 4.07 M (100.0%)
    Size: 16.27 MB
    Type: torch.float32
[jasmine] 2026-04-02 18:10:31,840 (abs_task:1459) INFO: Optimizer:
Adam (
Parameter Group 0
…
